aux_modules/speechProcessing/openWakeWord/hey_r_one.onnx (onnx, 205430 bytes, 9 tensors)

layer1.weight f4 [32, 1536]
-0.0001305981 0.0019437382 -0.007817373 4.184257e-06 0.006746765 -0.025811559 0.006577426 -0.003753616
-0.0015589581 -0.016979603 0.014147565 0.012022962 -0.00785798 -0.006616509 -0.025699442 0.0037017479
0.01047293 0.013048393 -0.025827507 -0.015785208 0.022181043 0.023967622 0.0012117206 -0.01975061
0.014358732 -0.0145802805 0.021807024 -0.024162086 -0.018490529 0.02363311 -0.010160307 0.014635973
-0.0066007385 0.013033275 -0.0009997878 -0.0039281966 -0.010762896 -0.022322148 -0.0044085607 -0.021473683
3.3271495e-05 0.0063146064 -0.023825902 0.015731474 -0.025693946 -0.009759556 -0.021477586 0.019854646
-0.015087509 0.016051272 0.026544463 0.014212686 0.0030646 -0.0021267307 0.007096802 0.017558036
0.019277195 -0.011621009 -0.01529754 -0.021308955 -0.00396724 -0.025006374 0.012089088 -0.0103386715
-0.0017230703 -0.011452345 0.034457296 0.016874364 0.03557774 -0.0021536294 -0.010637736 -0.021690467
0.013807021 0.009320949 -0.01277075 0.019121185 0.019546596 -0.00057225465 0.026086623 0.009254177
-0.023146229 0.008626903 -0.0041295295 0.026015503 -0.026573014 -0.03213996 0.023099959 -0.027126491
0.010405332 -0.025203163 0.021607773 -0.009572152 -0.01962088 -0.015730677 0.0061887745 -0.024034597
0.005201914 0.0005042648 -0.016174668 -0.047760718 0.037212975 -0.028480513 -0.005303829 0.0063533024
-0.03492221 -0.0148808 0.025615701 0.004252861 -0.025826858 0.0154172825 -0.0052198 -0.016352672
0.0023552706 0.017991312 -0.008160696 0.02133358 -0.0013442009 0.0047092857 -0.0012241617 -0.011873211
-0.020554895 0.013737787 0.028817749 0.018851815 -0.006627559 -0.022623423 0.023954557 0.016574815
0.0044933893 -0.010410686 -0.023814593 -0.014230683 -0.021890473 -0.00529679 0.008648945 -0.021174645
0.025659421 0.004570245 7.413189e-05 0.007674498 -0.027874034 -0.02676165 -0.0025904686 -0.0251635
-0.034491997 0.030537173 0.006487955 -0.019908426 -0.004139539 0.047839608 -0.019781614 -0.022644956
0.0074343886 0.017653368 0.025973966 0.025870975 0.005256906 0.0027025086 0.02221407 -0.024267009
0.004077624 -0.009103693 0.048802063 -0.022755532 0.014677419 -0.009840789 0.00802037 0.021028185
-0.009668616 -0.0015366024 0.0017852965 0.0029832933 -0.0009767641 -0.026992954 0.025759991 0.019837646
0.003122395 -0.0285073 0.0015904901 -0.010958077 -0.017885096 -0.028915636 0.014293819 0.017143544
0.01918609 -0.02553098 0.018466486 0.0062495866 0.001547244 0.000111802874 -0.020553755 -0.008214808
0.012908768 -0.015543763 -0.006243351 -0.053093493 -0.007803078 -0.026693737 0.019044146 -0.0027647712
-0.034899518 -0.011391265 0.014765186 -0.01128479 -0.01907152 0.005523233 0.004448347 -0.0077406573
-0.022040896 0.0065499414 -0.022916649 0.006976861 -0.022332378 0.014293657 -0.018114835 -0.012974527
0.01756735 -0.00026917225 0.0028632283 0.0011925319 0.020858483 -0.0134250475 0.026671156 -0.0025058973
-0.014398322 -0.021750877 -0.009476287 0.0013584767 0.021093035 0.012210177 -0.026920198 -0.012750749
0.009496329 0.019139837 -0.022583699 0.026008468 -0.013317698 0.0031209674 -0.008660357 0.017718958
-0.002350948 0.03851482 -0.020369783 0.011572009 -0.0020614346 0.037705798 -0.021318095 -0.014745144
0.015644368 -0.026684446 0.023247033 -0.013177909 -0.006442499 -0.0033526006 -0.009440553 -0.018981978
00000000: 29f1 08b9 08c5 fe3a 7014 00bc 7e66 8c36
00000010: f813 dd3b c372 d3bc 7387 d73b 3aff 75bb
00000020: f455 ccba cf18 8bbc 30cb 673c f5fb 443c
00000030: c2be 00bc 4dcf d8bb a387 d2bc 0699 723b
00000040: a796 2b3c edc8 553c 3594 d3bc fb4f 81bc
00000050: 05b5 b53c bf57 c43c 99d2 9e3a 08cc a1bc
00000060: e340 6b3c 21e2 6ebc a5a4 b23c 91ef c5bc
00000070: 7379 97bc 399a c13c 6b77 26bc b8cb 6f3c
00000080: 024b d8bb 8489 553c 500b 83ba 1ab8 80bb
00000090: dc56 30bc f0dc b6bc b075 90bb 94e9 afbc
000000a0: ff8c 0b38 c2ea ce3b 8a2e c3bc 4bdf 803c
000000b0: 1c7c d2bc 8be6 1fbc c3f1 afbc 36a6 a23c
000000c0: 9931 77bc f57d 833c c673 d93c 53dc 683c
000000d0: 75d7 483b 9f60 0bbb 4a8c e83b dfd5 8f3c
000000e0: 35eb 9d3c 0b66 3ebc 89a2 7abc 1e90 aebc
000000f0: 9fff 81bb 2bda ccbc 4f11 463c 8863 29bc
00000100: a5d8 e1ba 9ea2 3bbc 1823 0d3d 1b3c 8a3c
00000110: f7b9 113d e823 0dbb e649 2ebc 35b0 b1bc
00000120: d836 623c e5b6 183c 683c 51bc 08a4 9c3c
00000130: 2f20 a03c 5c03 16ba 9db3 d53c d59e 173c
00000140: 299d bdbc db57 0d3c 0151 87bb 771e d53c
00000150: a6af d9bc 31a5 03bd 203c bd3c 6038 debc
00000160: 207b 2a3c dd76 cebc c902 b13c 84d4 1cbc
00000170: f8bb a0bc 9fdd 80bc 34cb ca3b 34e4 c4bc
00000180: d174 aa3b a330 043a bd80 84bc bea0 43bd
00000190: a26c 183d f74f e9bc becb adbb 5d2f d03b
000001a0: 970a 0fbd 99ce 73bc 05d8 d13c 955b 8b3b
000001b0: d992 d3bc c598 7c3c db0a abbb 0af6 85bc
000001c0: e25a 1a3b 8462 933c 71b4 05bc c3c3 ae3c
000001d0: e62f b0ba 5a50 9a3b 0d74 a0ba db87 42bc
000001e0: bd62 a8bc 7414 613c 3313 ec3c 1f6f 9a3c
000001f0: ff2b d9bb c254 b9bc 593c c43c e8c7 873c
00000200: 483d 933b 9591 2abc d216 c3bc d027 69bc
00000210: a653 b3bc b290 adbb 4eb4 0d3c 7376 adbc
00000220: b533 d23c fec1 953b 4177 9b38 5b7a fb3b
00000230: 1658 e4bc 3f3b dbbc dac4 29bb af23 cebc
00000240: 7b47 0dbd 1829 fa3c e998 d43b ff16 a3bc
00000250: f8a4 87bb 77f3 433d 0d0d a2bc ea81 b9bc
00000260: 2c9c f33b cc9d 903c 5bc7 d43c 5eef d33c
00000270: 2042 ac3b 921c 313b 48fa b53c 9bcb c6bc
00000280: 979d 853b a827 15bc ace4 473d cf69 babc
00000290: 8f79 703c 433b 21bc df67 033c 4d43 ac3c
000002a0: 1d69 1ebc d267 c9ba 9c00 ea3a 5b83 433b
000002b0: c406 80ba 5420 ddbc 9e06 d33c 8f82 a23c
000002c0: 18a1 4c3b 2488 e9bc fe77 d03a 8289 33bc
000002d0: c483 92bc 7ce0 ecbc 9f30 6a3c 9e70 8c3c
000002e0: 262c 9d3c 5926 d1bc 0747 973c 55c9 cc3b
000002f0: e5cc ca3a b677 ea38 5960 a8bc 6797 06bc
00000300: 4c7f 533c 44ab 7ebc 0695 ccbb 9078 59bd
00000310: f6b0 ffbb d3ac dabc 7802 9c3c 2a31 35bb
00000320: ccf2 0ebd 6ea2 3abc aee9 713c d7e3 38bc
00000330: e03b 9cbc 3dfc b43b 70c3 913b 57a5 fdbb
00000340: 1c8f b4bc e4a0 d63b b2bb bbbc 279e e43b
00000350: 64f2 b6bc f12f 6a3c 9065 94bc 1c93 54bc
00000360: 67e9 8f3c b01f 8db9 00a5 3b3b bb4e 9c3a
00000370: 69df aa3c bbf4 5bbc 787d da3c fb39 24bb
00000380: f1e6 6bbc e52e b2bc 6e42 1bbc ea0e b23a
00000390: 4dcb ac3c 320d 483c bf87 dcbc 84e8 50bc
000003a0: 7e96 1b3c 26cb 9c3c 7301 b9bc b60f d53c
000003b0: 7932 5abc 2589 4c3b 2ce4 0dbc 5927 913c
000003c0: 5d12 1abb b7c1 1d3d 88de a6bc 8698 3d3c
000003d0: 2219 07bb 6571 1a3d 49a3 aebc 9e95 71bc
000003e0: 9e28 803c 5799 dabc 9070 be3c 28e8 57bc
000003f0: 991b d3bb 4eb7 5bbb 8dac 1abc 1880 9bbc

layer1.bias f4 [32]
-0.027865117 -0.008509036 -0.0029808742 -0.003945841 0.0033207254 -0.017333701 -0.018821305 0.017933747
-0.012064359 0.007537792 0.0038978718 -0.02557956 -0.018316736 -0.02795152 0.01042009 0.0022005725
0.02195203 -0.012385762 0.013666176 0.017595567 0.0055804746 0.019128654 0.0134089915 0.004336381
-0.024337774 -0.01931389 0.006646149 0.0053231334 -0.010094834 0.020350331 0.018661808 0.017610034
00000000: 6345 e4bc 7c69 0bbc c55a 43bb 1d4c 81bb
00000010: 87a0 593b 68ff 8dbc 232f 9abc cbe9 923c
00000020: 97a9 45bc 95ff f63b 7073 7f3b 3a8c d1bc
00000030: fb0c 96bc 96fa e4bc 06b9 2a3c 7b37 103b
00000040: bed4 b33c a7ed 4abc 19e8 5f3c 9424 903c
00000050: 6adc b63b b2b3 9c3c 63b1 5b3c 3318 8e3b
00000060: 0360 c7bc 2a38 9ebc f0c7 d93b ae6d ae3b
00000070: cd64 25bc bdb5 a63c a6e0 983c eb42 903c

layernorm1.weight f4 [32]
0.99709046 0.93668735 1.0049022 0.9754924 0.9603331 0.99659467 0.9843406 1.0315765
1.0198377 1.0098715 0.9973651 0.9963403 1.0433531 0.9651553 0.95172346 1.0004473
0.98810506 1.0311158 0.9962786 0.986078 0.9770617 0.9975626 0.99281865 0.9919227
0.99522275 0.99244255 0.97822964 0.98696107 0.9994941 0.93386364 1.0179515 0.994353
00000000: 5241 7f3f beca 6f3f a3a0 803f dfb9 793f
00000010: 64d8 753f d420 7f3f bffd 7b3f b30a 843f
00000020: 0b8a 823f 7843 813f 5253 7f3f 2810 7f3f
00000030: 988c 853f 6b14 773f 26a4 733f a80e 803f
00000040: 74f4 7c3f 9afb 833f 1d0c 7f3f 9c6f 7c3f
00000050: b720 7a3f 4360 7f3f 5d29 7e3f a5ee 7d3f
00000060: ebc6 7e3f b710 7e3f 426d 7a3f 7ba9 7c3f
00000070: d8de 7f3f b011 6f3f 3c4c 823f eb8d 7e3f

layernorm1.bias f4 [32]
-0.00020226164 -0.062208313 0.007513259 0.02096583 -0.06153338 0.024734633 -0.008556009 0.008135076
0.012382237 0.01120572 -0.012713268 -0.012422291 0.023929283 -0.030626668 0.003988886 0.0122329015
-0.017633215 0.023936493 -0.015304499 -0.016654436 -0.031250898 -0.013670312 -0.0060036005 -0.012765891
-0.007956299 -0.013609496 -0.011428524 -0.010465457 0.013704575 -0.03840491 0.014787311 -0.0116692465
00000000: 3216 54b9 25ce 7ebd c931 f63b 88c0 ab3c
00000010: 6d0a 7cbd 49a0 ca3c 812e 0cbc fb48 053c
00000020: dede 4a3c 3298 373c 504b 50bc dd86 4bbc
00000030: 5807 c43c c7e4 fabc 33b5 823b 826c 483c
00000040: 8873 90bc 7716 c43c b9bf 7abc e26e 88bc
00000050: f100 00bd 72f9 5fbc dab9 c4bb 0728 51bc
00000060: 235b 02bc 5dfa 5ebc b43e 3bbc 4f77 2bbc
00000070: 2789 603c 784e 1dbd 7a46 723c 5e30 3fbc

blocks.0.fcn_layer.weight f4 [32, 32]
-0.16343175 0.07220225 0.15930672 -0.027182976 0.11221067 -0.023813361 0.12164508 0.07476718
0.107164055 -0.061519988 -0.09783416 0.044228867 0.1078581 -0.08733137 0.071961544 0.16954517
0.04246339 -0.15921469 0.032713354 -0.02346306 0.03109201 -0.13204591 0.09552568 -0.040721335
-0.084689334 -0.0023078592 0.1175165 -0.14736542 0.1477104 0.11437123 -0.075641 0.07844609
-0.03036 0.012722646 0.082553215 -0.054455195 0.12505372 0.15682963 0.05699337 0.020050457
0.05865635 -0.12885992 -0.058605712 0.08504806 -0.085673496 -0.08359556 -0.15226023 0.09086814
0.045273025 0.003085878 0.06562001 -0.18317232 0.028917633 -0.061229173 -0.14124703 0.07872638
0.05371069 0.17222983 0.12909701 -0.1086196 -0.060188327 -0.0060353857 0.17021883 0.109839
0.12841195 0.26630494 0.15884021 -0.027789593 0.119798206 0.023400763 -0.1674003 0.097562306
0.011397849 -0.10169672 0.14294498 -0.05287132 0.046842467 -0.083246045 0.14759986 0.11587383
0.026069356 -0.16283749 0.13840693 0.028452253 0.16933113 -0.12184135 0.15033346 -0.022241749
-0.06855923 0.07914348 -0.074991785 0.16056412 0.100987695 -0.12485646 -0.0023217208 -0.12508357
0.0385812 -0.088385016 0.019661387 0.1917709 -0.18319583 -0.01067109 -0.066461965 0.100347176
-0.0076805856 0.06922231 0.1501628 0.09524519 0.1322116 0.09693242 -0.14433008 -0.07021111
0.045883436 -0.06359588 -0.04115186 0.027824322 -0.07741497 0.12137225 -0.165908 0.091538556
-0.11096688 -0.09780562 -0.06837556 -0.14579459 -0.14295858 0.049568236 -0.028260196 0.046045784
-0.13104568 0.041123845 0.083553866 0.02275507 0.045274377 0.04063011 -0.023861477 0.10201523
-0.0808877 0.06775773 -0.155 -0.038571864 0.051257677 -0.012569896 0.11856782 -0.052870966
-0.022147443 -0.16082524 0.017221933 -0.14496244 -0.10317387 -0.02957594 -0.14990674 0.055101123
-0.17999434 -0.12674761 -0.010734588 0.15569441 0.16438074 0.038549196 0.1617033 -0.007160148
0.05216972 0.17194209 -0.09272048 0.14687338 -0.013499332 -0.013348802 -0.124346755 -0.044999205
0.07459253 0.10178933 -0.08945621 0.041739717 0.0117520755 0.13214046 -0.14989887 -0.11823262
0.14738399 0.149584 -0.15815093 -0.06179552 0.104234375 -0.079371355 0.06362628 0.16335984
0.11344639 0.13102546 -0.068966255 0.1192286 0.14082259 0.17078687 -0.165193 0.13713235
0.029890247 -0.16388223 -0.013513428 0.121929035 0.099751174 -0.13453574 0.08347772 0.10255278
-0.12642755 0.10354276 -0.06331262 0.15450712 0.08860056 -0.13203119 0.079070166 -0.014359927
-0.10371516 -0.00048970385 0.10624618 0.0787635 0.0018544153 0.10738692 0.07905028 -0.091722056
0.03599419 -0.06925024 -0.07697786 0.06647272 -0.0034837155 -0.086329795 -0.042545427 -0.028038977
-0.15881856 0.16415557 0.09925445 -0.12865253 -0.039141387 0.023292657 0.029467506 -0.090413034
-0.04881494 0.046786617 0.021582514 -0.14414653 0.10519425 0.034065995 -0.14249596 0.072018474
-0.09763115 -0.09913584 -0.06601142 0.10398297 -0.07042952 -0.09874845 0.060716987 0.059553567
-0.061495192 0.06689305 -0.124624036 0.02064299 0.1733775 0.08880824 -0.14914648 0.13003454
00000000: a75a 27be c6de 933d 4d21 233e d5ae debc
00000010: b5ce e53d 3d14 c3bc 0e21 f93d 891f 993d
00000020: d478 db3d 62fc 7bbd 475d c8bd 5429 353d
00000030: b5e4 dc3d cada b2bd 9360 933d 409d 2d3e
00000040: 17ee 2d3d 2d09 23be 70fe 053d 9a35 c0bc
00000050: acb4 fe3c 0b37 07be f8a2 c33d 6acb 26bd
00000060: 9a71 adbd 743f 17bb 7eac f03d f6e6 16be
00000070: 6541 173e 773b ea3d abe9 9abd 58a8 a03d
00000080: 89b5 f8bc a572 503c a911 a93d 690c 5fbd
00000090: 150e 003e f297 203e e171 693d db40 a43c
000000a0: a441 703d dbf3 03be 8b0c 70bd ad2d ae3d
000000b0: 9675 afbd 2634 abbd 1bea 1bbe 1319 ba3d
000000c0: 3570 393d 713c 4a3b c963 863d 8691 3bbe
000000d0: ace4 ec3c 71cb 7abd 10a3 10be 4c3b a13d
000000e0: beff 5b3d 045d 303e 0232 043e f473 debd
000000f0: 0988 76bd 7cc4 c5bb d84d 2e3e 45f3 e03d
00000100: 6c7e 033e 1f59 883e 02a7 223e 00a7 e3bc
00000110: c358 f53d f5b2 bf3c fc6a 2bbe bfce c73d
00000120: 0bbe 3a3c 5f46 d0bd 2b60 123e 998f 58bd
00000130: e3dd 3f3d e77c aabd 6b24 173e 424f ed3d
00000140: 678f d53c dfbe 26be 8cba 0d3e b314 e93c
00000150: 2465 2d3e f587 f9bd 04f1 193e 5434 b6bc
00000160: c868 8cbd fa15 a23d 4b95 99bd ec6a 243e
00000170: a3d2 ce3d beb4 ffbd 0328 18bb e815 00be
00000180: 5207 1e3d 3403 b5bd eb10 a13c 975f 443e
00000190: b097 3bbe ccd5 2ebc 361d 88bd d282 cd3d
000001a0: 6cad fbbb 6dc4 8d3d 47c4 193e e90f c33d
000001b0: 7a62 073e 8184 c63d 44cb 13be d8ca 8fbd
000001c0: 45f0 3b3d 8f3e 82bd da8e 28bd d5ef e33c
000001d0: bd8b 9ebd 0492 f83d c9e3 29be 9178 bb3d
000001e0: 9b42 e3bd 504e c8bd 7c08 8cbd 2d4b 15be
000001f0: bc63 12be 1008 4b3d ed81 e7bc 819a 3c3d
00000200: d730 06be 7a71 283d 4a1e ab3d d768 ba3c
00000210: a071 393d c26b 263d 2579 c3bc 5ced d03d
00000220: 73a8 a5bd 91c4 8a3d 52b8 1ebe 88fd 1dbd
00000230: 92f3 513d f7f1 4dbc afd3 f23d 3a8f 58bd
00000240: 8e6e b5bc 5faf 24be 0315 8d3c 0971 14be
00000250: d24c d3bd 3e49 f2bc 2781 19be b7b1 613d
00000260: 7050 38be 20ca 01be 20e0 2fbc 5b6e 1f3e
00000270: 6d53 283e c3e5 1d3d 8d95 253e ad9f eabb
00000280: ebaf 553d 9611 303e 3ce4 bdbd fa65 163e
00000290: 4d2c 5dbc efb4 5abc 83a9 febd 1651 38bd
000002a0: f8c3 983d ed76 d03d d134 b7bd 44f7 2a3d
000002b0: c78b 403c d44f 073e 177f 19be f223 f2bd
000002c0: d4eb 163e 8c2c 193e 51f2 21be 4d1d 7dbd
000002d0: d578 d53d 738d a2bd 7f4e 823d cd47 273e
000002e0: 9556 e83d 8a2b 063e 2e3e 8dbd 202e f43d
000002f0: cc33 103e c1e2 2e3e 5b28 29be 6c6c 0c3e
00000300: 64dc f43c bed0 27be 6d67 5dbc eeb5 f93d
00000310: 584a cc3d bdc3 09be 5ef6 aa3d 3107 d23d
00000320: 3976 01be 3a0e d43d 0caa 81bd 1d37 1e3e
00000330: 3674 b53d 2f33 07be 8aef a13d e645 6bbc
00000340: 9d68 d4bd 785f 00ba 9997 d93d c24e a13d
00000350: da0f f33a aced db3d 1de5 a13d c6d8 bbbd
00000360: a56e 133d 12d3 8dbd 91a6 9dbd d922 883d
00000370: 0c4f 64bb adcd b0bd 1d44 2ebd ffb1 e5bc
00000380: 55a1 22be 6618 283e eb45 cb3d 7dbd 03be
00000390: b852 20bd 3ed0 be3c d765 f13c 782a b9bd
000003a0: 2df2 47bd 53a3 3f3d d0cd b03c 269b 13be
000003b0: 1570 d73d c988 0b3d 76ea 11be 6c7e 933d
000003c0: d7f2 c7bd bb07 cbbd ff30 87bd 06f5 d43d
000003d0: 5a3d 90bd a13c cabd 60b2 783d 71ee 733d
000003e0: 62e2 7bbd 39ff 883d e33a ffbd 7d1b a93c
000003f0: df89 313e 18e1 b53d dbb9 18be c627 053e

blocks.0.fcn_layer.bias f4 [32]
-0.14274095 0.08691827 -0.06888464 0.09673926 0.057270892 0.14898486 0.14284356 0.05315724
0.03188448 0.14703031 -0.14273782 0.06407023 -0.12112592 0.046779614 0.13496764 0.10565933
-0.044084087 0.02346924 0.05447985 0.016963627 0.019836819 -0.06472258 0.086173 0.107689574
0.06607826 -0.16014758 0.15738735 -0.11633933 -0.10682159 -0.009720783 0.03856682 -0.14837067
00000000: af2a 12be 3502 b23d 6413 8dbd 3c1f c63d
00000010: e294 6a3d 7d8f 183e 9545 123e 68bb 593d
00000020: 4d99 023d 1d8f 163e dd29 12be 4137 833d
00000030: de10 f8bd fb9b 3f3d f534 0a3e eb63 d83d
00000040: 8491 34bd 9042 c03c 4326 5f3d 4ef7 8a3c
00000050: d380 a23c 468d 84bd 787b b03d 5a8c dc3d
00000060: 0a54 873d bafd 23be 262a 213e 5143 eebd
00000070: 47c5 dabd eb43 1fbc 3ef8 1d3d 7bee 17be

blocks.0.layer_norm.weight f4 [32]
1.2449133 1.3588609 1.3225551 1.006515 1.2965857 1.0796376 0.999377 1.0277424
0.9984238 0.9944017 0.9962043 1.1181749 1.262791 1.0079455 1.005364 1.2568152
1.0015001 1.4547743 1.006474 1.2840024 0.9753655 1.0195637 1.0104647 0.99616206
1.3051002 1.1321454 1.004499 1.0687451 1.0107455 1.1032908 1.0183129 1.0012704
00000000: 5259 9f3f 27ef ad3f 7c49 a93f 7cd5 803f
00000010: 85f6 a53f 9131 8a3f 2cd7 7f3f 108d 833f
00000020: b498 7f3f 1c91 7e3f 3f07 7f3f 5b20 8f3f
00000030: 23a3 a13f 5c04 813f c4af 803f 52df a03f
00000040: 2831 803f 0b36 ba3f 24d4 803f 315a a43f
00000050: 8eb1 793f 1081 823f e856 813f 7a04 7f3f
00000060: 860d a73f 24ea 903f 6c93 803f a4cc 883f
00000070: 1c60 813f a238 8d3f 1458 823f a129 803f

blocks.0.layer_norm.bias f4 [32]
0.2674848 0.3258691 0.30637208 0.009433389 0.28640825 0.03386582 -0.0012349053 0.018192373
-0.0036398442 -0.009380868 -0.006470447 0.07120432 0.27505854 0.00040947148 0.0070345406 0.2732809
0.0032890474 0.3630756 0.0075312285 0.28926846 -0.018334802 0.022461016 0.0037343248 -0.0040904847
0.29503706 0.04131734 0.009109948 0.027812978 0.0064650555 0.03731873 0.020306734 0.013849014
00000000: c5f3 883e 51d8 a63e cddc 9c3e 808e 1a3c
00000010: 1aa4 923e e3b6 0a3d 8cdc a1ba 2c08 953c
00000020: 748a 6ebb 36b2 19bc 0b06 d4bb 92d3 913d
00000030: 79d4 8c3e 55ae d639 0182 e63b 79eb 8b3e
00000040: 0f8d 573b 0ce5 b93e 86c8 f63b ff1a 943e
00000050: de32 96bc 2a00 b83c 93bb 743b 7909 86bb
00000060: 190f 973e 5f3c 293d e441 153c 0bd8 e33c
00000070: d1d8 d33b 86db 183d 4f5a a63c fae6 623c

last_layer.weight f4 [1, 32]
-0.3164214 -0.28597394 -0.2963188 0.081794046 -0.32710963 0.19413453 0.031061515 0.18264204
0.06954323 0.11342567 0.167784 0.2002518 -0.3161892 0.10368659 0.10678555 -0.3090557
0.14855492 -0.36453703 0.04279028 -0.29091635 -0.0075577083 0.17072687 0.12532769 -0.000617408
-0.3088341 0.27150124 0.02517151 0.20882457 0.1786528 0.24520952 0.03221916 0.03677114
00000000: fc01 a2be 2d6b 92be 19b7 97be a383 a73d
00000010: ea7a a7be 34cb 463e b874 fe3c 8406 3b3e
00000020: ae6c 8e3d b84b e83d 92cf 2b3e cf0e 4d3e
00000030: 8de3 a1be a359 d43d 62b2 da3d 8c3c 9ebe
00000040: c81e 183e 99a4 babe dc44 2f3d fdf2 94be
00000050: a7a6 f7bb 06d3 2e3e e755 003e 8dd9 21ba
00000060: 811f 9ebe 3602 8b3e 7c34 ce3c 1cd6 553e
00000070: c2f0 363e 3418 7b3e 3df8 033d 569d 163d
